MyE2EModel(
  (fe): FeatureExtractor(
    (convs): Sequential(
      (0): Conv1d(1, 512, kernel_size=(10,), stride=(5,), bias=False)
      (1): GroupNorm(1, 512, eps=1e-05, affine=True)
      (2): GELU(approximate='none')
      (3): Conv1d(512, 512, kernel_size=(3,), stride=(2,), bias=False)
      (4): GroupNorm(1, 512, eps=1e-05, affine=True)
      (5): GELU(approximate='none')
      (6): Conv1d(512, 512, kernel_size=(3,), stride=(2,), bias=False)
      (7): GroupNorm(1, 512, eps=1e-05, affine=True)
      (8): GELU(approximate='none')
      (9): Conv1d(512, 512, kernel_size=(3,), stride=(2,), bias=False)
      (10): GroupNorm(1, 512, eps=1e-05, affine=True)
      (11): GELU(approximate='none')
      (12): Conv1d(512, 512, kernel_size=(3,), stride=(2,), bias=False)
      (13): GroupNorm(1, 512, eps=1e-05, affine=True)
      (14): GELU(approximate='none')
      (15): Conv1d(512, 512, kernel_size=(2,), stride=(2,), bias=False)
      (16): GroupNorm(1, 512, eps=1e-05, affine=True)
      (17): GELU(approximate='none')
      (18): Conv1d(512, 512, kernel_size=(2,), stride=(2,), bias=False)
      (19): GroupNorm(1, 512, eps=1e-05, affine=True)
      (20): GELU(approximate='none')
    )
    (ln): LayerNorm((512,), eps=1e-05, elementwise_affine=True)
    (linear): Linear(in_features=512, out_features=512, bias=True)
    (dropout): Dropout(p=0.1, inplace=False)
  )
  (quantize): Quantize(
    (linear): Linear(in_features=512, out_features=640, bias=True)
  )
  (encoder): Encoder(
    (positional_embedding): PositionalConvEmbbeding(
      (conv): Conv1d(512, 512, kernel_size=(128,), stride=(1,), padding=(64,), groups=16)
    )
    (blocks): ModuleList(
      (0-5): 6 x ResidualAttentionBlock(
        (attn): MultiHeadAttention(
          (query): Linear(in_features=512, out_features=512, bias=True)
          (key): Linear(in_features=512, out_features=512, bias=False)
          (value): Linear(in_features=512, out_features=512, bias=True)
          (out): Linear(in_features=512, out_features=512, bias=True)
          (layer_norm): LayerNorm((512,), eps=1e-05, elementwise_affine=True)
          (dropout): Dropout(p=0.1, inplace=False)
        )
        (attn_ln): LayerNorm((512,), eps=1e-05, elementwise_affine=True)
        (pos_ffn): PositionwiseFeedForward(
          (w_1): Conv1d(512, 2048, kernel_size=(5,), stride=(1,), padding=(2,))
          (w_2): Conv1d(2048, 512, kernel_size=(1,), stride=(1,))
          (layer_norm): LayerNorm((512,), eps=1e-05, elementwise_affine=True)
          (dropout): Dropout(p=0.1, inplace=False)
        )
      )
    )
    (ln1): LayerNorm((512,), eps=1e-05, elementwise_affine=True)
  )
  (decoder): Decoder(
    (blocks): ModuleList(
      (0-5): 6 x ResidualAttentionBlock(
        (attn): MultiHeadAttention(
          (query): Linear(in_features=512, out_features=512, bias=True)
          (key): Linear(in_features=512, out_features=512, bias=False)
          (value): Linear(in_features=512, out_features=512, bias=True)
          (out): Linear(in_features=512, out_features=512, bias=True)
          (layer_norm): LayerNorm((512,), eps=1e-05, elementwise_affine=True)
          (dropout): Dropout(p=0.1, inplace=False)
        )
        (attn_ln): LayerNorm((512,), eps=1e-05, elementwise_affine=True)
        (cross_attn): MultiHeadAttention(
          (query): Linear(in_features=512, out_features=512, bias=True)
          (key): Linear(in_features=512, out_features=512, bias=False)
          (value): Linear(in_features=512, out_features=512, bias=True)
          (out): Linear(in_features=512, out_features=512, bias=True)
          (layer_norm): LayerNorm((512,), eps=1e-05, elementwise_affine=True)
          (dropout): Dropout(p=0.1, inplace=False)
        )
        (cross_attn_ln): LayerNorm((512,), eps=1e-05, elementwise_affine=True)
        (pos_ffn): PositionwiseFeedForward(
          (w_1): Conv1d(512, 2048, kernel_size=(5,), stride=(1,), padding=(2,))
          (w_2): Conv1d(2048, 512, kernel_size=(1,), stride=(1,))
          (layer_norm): LayerNorm((512,), eps=1e-05, elementwise_affine=True)
          (dropout): Dropout(p=0.1, inplace=False)
        )
      )
    )
    (pos_emb): Embedding(1000, 512)
  )
  (classifier): Linear(in_features=512, out_features=512, bias=True)
  (gelu): GELU(approximate='none')
  (ln): LayerNorm((512,), eps=1e-05, elementwise_affine=True)
)
device: cuda
epoch 1/200:
n_batch: 5,phase:    train,loss:1.430e+01,lr:1.000e-05
n_batch:10,phase:    train,loss:1.170e+01,lr:1.000e-05
n_batch:15,phase:    train,loss:1.043e+01,lr:1.000e-05
n_batch:20,phase:    train,loss:9.785e+00,lr:1.000e-05
n_batch:25,phase:    train,loss:9.355e+00,lr:1.000e-05
n_batch:30,phase:    train,loss:9.069e+00,lr:1.000e-05
…
